python/revo2_tactile_grasp/models/stiffness_detect_model.pth (torch, 158213 bytes, 10 tensors)

lstm.weight_ih_l0 f4 [256, 6]
0.052133933 0.07548628 0.009547347 0.012399436 -3.2271294e-25 -1.6760632e-25 -0.092195936 0.04527963
0.023918843 0.037232015 -0.012037577 -0.003501479 0.0051046605 0.010376823 0.0490169 -0.0040602335
1.0850119e-05 2.5615689e-05 -0.09650286 -0.08460018 0.032611117 0.09383947 -0.07126184 0.018727936
0.008249516 0.027933726 -0.020268938 0.011049406 0.014388632 0.0029567857 -0.08634888 0.019067427
-0.01643553 0.0011486225 0.1391819 -0.119838715 -0.0007877987 0.008217703 -0.074512266 0.034353495
0.0017744476 -0.0027300995 0.08787048 0.061732348 -0.0031012702 -0.05984946 0.12944569 0.012791999
0.060870193 0.063524574 0.056188975 0.06166083 3.4025937e-37 9.4026976e-38 -0.11847259 0.032891076
0.058335684 0.10299587 -0.13597897 -0.07942351 0.052608028 -0.106775954 0.03891109 0.030522276
-0.008629836 -0.022994984 -0.0647897 -0.020840397 0.017993052 0.0064978846 0.051244665 0.12996113
0.048932925 0.073772214 0.008813995 0.037308276 5.62408e-12 1.6421901e-12 -0.055162914 -0.09982194
0.020126939 -0.036735218 0.05746505 0.0782448 -0.15744098 -0.003118308 0.119714856 -0.07380323
0.07804165 -0.06028164 0.035852276 0.12943032 -0.088573635 -0.06809446 0.027220486 0.023537477
-0.056626964 -0.059956204 0.10806549 -0.10345274 -0.015245894 0.09176644 0.14709897 -0.10440809
0.038791444 -0.07429634 0.028363047 0.037952248 -0.08628255 0.015844315 0.0060674003 0.016951427
0.022501018 0.06713632 0.103756644 -0.08420548 -0.01153853 -0.02287243 -0.009269405 0.036312178
0.04192303 0.062872514 -0.002404094 -0.003836751 -1.8008944e-09 -8.1571494e-10 -0.084489144 -0.045897156
0.043354392 -0.09202167 0.10665859 0.04411785 0.09636177 0.05694135 -0.1267361 -0.018456534
-0.05732966 0.06856263 0.14393006 0.07638958 0.049071636 -0.04914352 -0.0052198097 -0.041356355
0.061442222 -0.03427623 0.051139597 0.05192366 -0.12916593 -0.17291118 0.049865857 0.07040899
0.05514319 0.059664223 3.4011157e-37 5.0942266e-38 0.06760669 0.061189335 -0.110560216 -0.059620794
-0.09043606 0.059186608 -0.08682486 0.09273748 0.063956305 0.07689834 -1.5014895e-10 -9.2397555e-11
-0.046427008 0.030248156 -0.07094661 0.11856739 -0.023636457 -0.1666075 0.055371005 0.074858606
-0.124917336 0.054939378 0.009553213 0.011301693 0.05206831 0.08056397 0.05151787 0.0626227
-2.2639214e-37 2.6406884e-37 0.05564607 0.06902372 0.011624856 0.018407132 7.341333e-38 2.7628485e-37
-0.07325202 -0.0073595135 0.07467234 -0.01933888 -0.0037464036 0.1325221 0.08369937 -0.061124552
-0.06402866 0.12355714 -0.10160166 0.012585623 -0.009261682 0.049384344 -0.07999472 0.013451837
0.0417866 -0.10258303 0.031272527 0.07419897 0.044746887 0.0032266225 3.8121234e-19 1.6062631e-19
-0.036509987 -0.03615038 0.0044799563 0.08434354 0.027887376 -0.002851654 0.023462977 -0.031528737
0.025072288 -0.036140352 0.014141278 0.00056799245 0.08597519 0.12538736 -0.045247454 -0.124802016
0.074200265 0.08045968 -0.08491161 0.06943183 0.076214895 0.013364969 -0.051308256 -0.024609743
-0.08685022 0.040149365 0.0078108986 0.004157191 -0.11053101 0.15806404 -0.110116124 0.03320825
0.087546684 -0.05892422 -0.015177608 -0.074325904 0.032284014 0.0290048 0.043124598 0.021792537
00000000: 648a 553d 8d98 9a3d 7a6c 1c3c 0127 4b3c
00000010: e8bf c796 907c 4f96 39d1 bcbd 2277 393d
00000020: 73f1 c33c 9980 183d 4239 45bc 1279 65bb
00000030: ff44 a73b 8d03 2a3c f2c5 483d b50b 85bb
00000040: e808 3637 46e1 d637 4ba3 c5bd dc42 adbd
00000050: 3c93 053d e82e c03d baf1 91bd 546b 993c
00000060: fa28 073c 45d5 e43c 0b0b a6bc 9108 353c
00000070: 4cbe 6b3c a2c6 413b aed7 b0bd 4b33 9c3c
00000080: cea3 86bc 608d 963a b385 0e3e 006e f5bd
00000090: 4784 4eba 8ba3 063c e399 98bd 40b6 0c3d
000000a0: 9594 e83a 78eb 32bb 70f5 b33d 0fdb 7c3d
000000b0: ae3e 4bbb b524 75bd 698d 043e 8895 513c
000000c0: 0653 793d 2c19 823d 6926 663d 1190 7c3d
000000d0: 8b91 e702 3df7 ff01 c2a1 f2bd cbb8 063d
000000e0: 66f1 6e3d 80ef d23d 123e 0bbe cba8 a2bd
000000f0: 847b 573d 5aad dabd 3c61 1f3d da09 fa3c
00000100: 2864 0dbc fa5f bcbc 76b0 84bd 7bb9 aabc
00000110: 2a66 933c 35ec d43b ede5 513d 8814 053e
00000120: e46d 483d e315 973d 9368 103c 90d0 183d
00000130: 36e1 c52c 221e e72b 82f2 61bd 726f ccbd
00000140: 40e1 a43c ab77 16bd 7960 6b3d cf3e a03d
00000150: 3538 21be 875c 4cbb 102d f53d 2626 97bd
00000160: 4dd4 9f3d e2e9 76bd d6d9 123d 6289 043e
00000170: 1866 b5bd 1c75 8bbd 7ffd de3c abd1 c03c
00000180: adf1 67bd a394 75bd 7151 dd3d 08df d3bd
00000190: eac9 79bc 0bf0 bb3d 1da1 163e e9d3 d5bd
000001a0: c7e3 1e3d ae28 98bd 9f59 e83c d173 1b3d
000001b0: e8b4 b0bd f0cb 813c 0bd1 c63b b8dd 8a3c
000001c0: 0e54 b83c c47e 893d 5d7e d43d ec73 acbd
000001d0: 1a0c 3dbc f65e bbbc b4de 17bc 14bc 143d
000001e0: 7cb7 2b3d 4ec3 803d 018e 1dbb 0072 7bbb
000001f0: 5783 f7b0 d638 60b0 a508 adbd a8fe 3bbd
00000200: 6094 313d db75 bcbd d26f da3d ebb4 343d
00000210: 5259 c53d 553b 693d 1cc7 01be 2832 97bc
00000220: 81d2 6abd 906a 8c3d 6762 133e 2472 9c3d
00000230: 57ff 483d b74a 49bd f00a abbb 4865 29bd
00000240: d7aa 7b3d 3b65 0cbd c177 513d e7ad 543d
00000250: 1344 04be a10f 31be 2440 4c3d 9732 903d
00000260: d3dd 613d 7962 743d cb77 e702 94ad 8a01
00000270: 6075 8a3d aba1 7a3d 656d e2bd ef34 74bd
00000280: 8b36 b9bd a86d 723d 3bd1 b1bd 26ed bd3d
00000290: 86fb 823d e07c 9d3d 2c17 25af 332f cbae
000002a0: 3f2a 3ebd fbca f73c 754c 91bd 76d3 f23d
000002b0: 3ea1 c1bc 289b 2abe b5cc 623d 784f 993d
000002c0: a9d4 ffbd 1d08 613d 1485 1c3c bc2a 393c
000002d0: 9545 553d b9fe a43d 6704 533d 5540 803d
000002e0: 1313 9a82 48b7 b302 22ed 633d 4f5c 8d3d
000002f0: 2e76 3e3c 8eca 963c a0d9 c701 9c07 bc02
00000300: 2805 96bd 1328 f1bb d0ed 983d 926c 9ebc
00000310: 3986 75bb e0b3 073e 936a ab3d bd5d 7abd
00000320: 7521 83bd 870b fd3d 8814 d0bd ee33 4e3c
00000330: 4fbe 17bc 3d47 4a3d 46d4 a3bd 1865 5c3c
00000340: 6d28 2b3d 0d17 d2bd 9f17 003d a1f5 973d
00000350: 8348 373d be75 533b 2e07 e120 53a2 3d20
00000360: 7f8b 15bd 6c12 14bd 99cc 923b 4ebc ac3d
00000370: 1174 e43c d1e2 3abb 6e35 c03c 4724 01bd
00000380: 6664 cd3c e807 14bd d2b0 673c 54e5 143a
00000390: c313 b03d 8b65 003e 6555 39bd 3398 ffbd
000003a0: 4ff6 973d 0bc8 a43d 23e6 adbd 4632 8e3d
000003b0: 8e16 9c3d bef8 5a3c 9b28 52bd 5f9a c9bc
000003c0: 87de b1bd a973 243d 91f2 ff3b 0c39 883b
000003d0: 155e e2bd 8adb 213e 9084 e1bd 6005 083d
000003e0: ad4b b33d 865a 71bd 80ab 78bc 2e38 98bd
000003f0: 3e3c 043d 799b ed3c 6ba3 303d 4386 b23c

lstm.weight_hh_l0 f4 [256, 64]
0.0012956111 0.0015469161 8.541358e-06 0.0005243795 0.00023948043 0.0012643194 0.0018536254 -0.002475432
-0.0012008331 0.0005656943 2.6941481e-05 -7.977542e-07 -0.0013274285 -0.0017997865 0.0012094541 -0.00039268986
0.0004325699 -0.0003630588 0.0022586393 -0.0017228138 -0.0019392445 -0.001827874 -0.0009970667 0.002057715
0.0023508314 0.0018802205 -0.00038280513 -0.0004066663 -0.0015556437 0.002140971 0.0018901126 -0.0012397377
-0.00053220644 0.0018099005 3.6180158e-05 -0.0017664818 -0.0019546275 0.0020459124 -0.0005045806 -0.0013592895
0.0020736922 -0.0018522737 0.0006549864 -0.0013761647 -0.0019840023 9.4505835e-05 0.00024369251 -0.0003964059
0.00040494103 -0.0002884124 -0.0018538737 -0.00024029831 -0.0012682553 -5.693644e-05 -0.0016562651 -0.0012077969
0.0005790984 0.00096684974 6.2851377e-06 -0.0012612861 -0.0015802332 0.0006117734 2.0427098e-05 -0.001183086
-0.030228773 0.28046432 -0.018227734 -0.21269761 0.030276248 -0.09193687 0.26806176 -0.17149374
-0.3806187 -0.015625838 -0.02305876 0.09759709 -0.07073175 -0.021136591 0.017399158 0.06567893
-0.100097716 -0.13111019 0.026301846 0.12733334 -0.07682011 0.02613468 -0.14445819 0.062305342
-0.023575315 0.07866145 0.04252787 0.01852107 -0.13978489 0.08857763 0.1309734 0.0039303633
0.15974613 0.09899314 0.08224599 -0.080280654 -0.110280834 0.026949452 0.07571667 0.1646031
0.26733628 -0.07692684 -0.050455246 -0.14927186 -0.021577867 0.05342085 -0.11018281 0.011973989
0.10171217 0.048773166 -0.10345795 -0.09925026 -0.03307331 0.23007433 -0.10278355 0.009068703
-0.034772716 0.00043539453 -0.046715792 -0.012200783 0.13493718 0.07092589 -0.011173921 -0.116363406
8.1971375e-05 0.0001102615 0.0007203444 -0.0007158065 5.960989e-05 0.00010048697 0.00018200799 -0.00018606223
-5.8411257e-05 0.0010378013 0.00061036623 -0.0008624051 -0.00010558125 0.0002513009 0.00026709583 1.2815446e-05
0.00029442098 0.00011550665 0.00018956224 -5.982909e-05 -0.00015460992 5.4450902e-05 -6.677247e-05 8.1559905e-05
-0.00057938736 -0.00035217553 1.3000907e-05 0.0009034306 -0.00068367267 0.00018097943 0.00022188552 -7.5876786e-05
0.00011674951 -0.00042748652 4.7378853e-06 1.1800603e-05 -0.00016228273 0.0007443952 -4.9389937e-06 -0.0006656117
-0.00012876675 0.00058995356 -0.00084672554 -8.198172e-05 -0.00018534898 1.5775653e-06 8.520701e-06 -0.0007949029
7.868308e-06 -1.5637384e-06 0.00044789285 4.3932127e-05 0.00036064093 4.134931e-06 -0.00021840137 0.0008117399
0.00011383897 -0.0006466138 -3.1388456e-05 0.00017665618 -0.00014368258 -2.8195236e-06 0.00063186896 -6.846725e-05
0.0013495584 0.0086999 0.06747259 0.046246614 0.039465073 -0.02863605 0.0010227781 0.09324946
0.05979777 0.024878733 -0.0060839737 -0.12472684 0.1530924 -0.03069053 0.10962519 0.03788771
-0.19225469 0.16977666 -0.010057752 -0.033474896 -0.0003591194 -0.13836747 -0.00014553263 -0.053038854
-0.08510483 -0.17144684 0.0031353447 -0.09209094 0.05323979 -0.13006675 -0.07686426 -0.0005823597
0.12795854 -0.039549142 0.0020295323 0.070276625 -0.0008472975 0.22287342 0.053936947 -0.053968184
-0.024735324 -0.10279312 0.027394082 0.0012018248 -0.0711859 0.02945212 0.003509607 -0.034447007
-0.0053918455 -0.09669632 0.03439942 0.100494355 0.058369838 0.09621862 -0.05721818 -0.04148613
-0.038915925 -0.11854919 0.06585911 0.10546945 -0.050696246 0.032321706 0.07590753 0.0050274334
00000000: 7fd1 a93a e4c1 ca3a da4c 0f37 8376 093a
00000010: 0a1d 7b39 85b7 a53a 59f5 f23a db3a 22bb
00000020: 4665 9dba 1a4b 143a 6400 e237 4025 56b5
00000030: 1cfd adba d0e6 ebba 8c86 9e3a f1e1 cdb9
00000040: 8dca e239 ed58 beb9 ae05 143b 0ad0 e1ba
00000050: 3f2e feba 4695 efba 02b0 82ba bbda 063b
00000060: 6810 1a3b bb71 f63a 3cb3 c8b9 d435 d5b9
00000070: bee6 cbba 884f 0c3b a8bd f73a b27e a2ba
00000080: c583 0bba 2f3a ed3a 26c0 1738 4b89 e7ba
00000090: 3519 00bb b714 063b d545 04ba 302a b2ba
000000a0: c8e6 073b fec7 f2ba 65b3 2b3a 6d60 b4ba
000000b0: 0906 02bb 6f31 c638 b687 7f39 b3d4 cfb9
000000c0: 444e d439 0f36 97b9 aefd f2ba 96f8 7bb9
000000d0: 963b a6ba 09cf 6eb8 0917 d9ba f04e 9eba
000000e0: a3ce 173a 3074 7d3a ece4 d236 bd51 a5ba
000000f0: d41f cfba 6b5f 203a dc5a ab37 c711 9bba
00000100: 55a2 f7bc 0599 8f3e 5452 95bc 67cd 59be
00000110: e505 f83c 6649 bcbd 643f 893e 0e9c 2fbe
00000120: 74e0 c2be c201 80bc bae5 bcbc fce0 c73d
00000130: cfdb 90bd a526 adbc ae88 8e3c ad82 863d
00000140: 0800 cdbd c041 06be f876 d73c ac63 023e
00000150: dd53 9dbd 6518 d63c d9ec 13be e333 7f3d
00000160: 0521 c1bc 4119 a13d b431 2e3d 80b9 973c
00000170: c523 0fbe 3068 b53d e41d 063e 47ca 803b
00000180: 7d94 233e eabc ca3d 9670 a83d 2f6a a4bd
00000190: ebda e1bd 19c5 dc3c 5711 9b3d b78d 283e
000001a0: 4de0 883e d28b 9dbd 29aa 4ebd b9da 18be
000001b0: 11c4 b0bc d2cf 5a3d 86a7 e1bd 8d2e 443c
000001c0: 784e d03d 5fc6 473d c3e1 d3bd b843 cbbd
000001d0: e177 07bd 9b98 6b3e 2f80 d2bd e694 143c
000001e0: d66d 0ebd aa45 e439 0f59 3fbd cbe5 47bc
000001f0: f92c 0a3e 9841 913d d212 37bc f04f eebd
00000200: 0ce8 ab38 313c e738 7fd5 3c3a f6a4 3bba
00000210: a205 7a38 88bc d238 66d9 3e39 b319 43b9
00000220: 9cfe 74b8 d506 883a fc00 203a 0713 62ba
00000230: 816b ddb8 09c1 8339 ff08 8c39 ec01 5737
00000240: 845c 9a39 293c f238 3ac5 4639 fff0 7ab8
00000250: c91e 22b9 3662 6438 3208 8cb8 240b ab38
00000260: 07e2 17ba 33a4 b8b9 781e 5a37 34d4 6c3a
00000270: 7f38 33ba 4cc5 3d39 f1a9 6839 0a20 9fb8
00000280: 6ad7 f438 4520 e0b9 20fa 9e36 34fb 4537
00000290: 702a 2ab9 8423 433a a2b9 a5b6 727c 2eba
000002a0: 9005 07b9 1da7 1a3a caf6 5dba 9aed abb8
000002b0: 3d5a 42b9 bbbc d335 22f4 0e37 0861 50ba
000002c0: 2002 0437 a4e1 d1b5 29d3 ea39 c343 3838
000002d0: 6814 bd39 c9be 8a36 ac02 65b9 f1ca 543a
000002e0: d5bc ee38 8481 29ba 19a7 03b8 c83c 3939
000002f0: 80a9 16b9 0c37 3db6 02a4 253a 1396 8fb8
00000300: aae3 b03a 068a 0e3c 122f 8a3d 176d 3d3d
00000310: 21a6 213d 2696 eabc bd0e 863a 93f9 be3d
00000320: 82ee 743d 7cce cb3c 125c c7bb c970 ffbd
00000330: 41c4 1c3e b56a fbbc 2c83 e03d 2530 1b3d
00000340: 6ade 44be efd9 2d3e 45c9 24bc f91c 09bd
00000350: 3148 bcb9 34b0 0dbe 1e9a 18b9 453f 59bd
00000360: 714b aebd c38f 2fbe 5b7a 4d3b 2d9a bcbd
00000370: f711 5a3d 3830 05be 026b 9dbd 7fa9 18ba
00000380: 9007 033e 48fe 21bd e701 053b 31ed 8f3d
00000390: 2c1d 5eba ee38 643e fdec 5c3d be0d 5dbd
000003a0: bca1 cabc 3385 d2bd 8e69 e03c 8c86 9d3a
000003b0: eac9 91bd 9345 f13c 6f01 663b 4e18 0dbd
000003c0: 14ae b0bb b808 c6bd 68e6 0c3d fccf cd3d
000003d0: 3615 6f3d 450e c53d 9c5d 6abd 5ced 29bd
000003e0: 4e66 1fbd ebc9 f2bd 24e1 863d 5e00 d83d
000003f0: dea6 4fbd c463 043d 6875 9b3d 2bbd a43b

lstm.bias_ih_l0 f4 [256]
0.005067264 0.04882761 3.8646573e-05 -0.0035278008 -0.03991477 -0.09374464 0.16930085 0.028595682
0.004478925 -0.010205344 0.014498875 -0.08898712 0.012628934 0.35560244 -0.09950266 -0.01304697
0.0045330063 0.07383658 0.0795602 0.09528798 0.0061141313 0.059695862 0.09510348 -0.056249827
0.17755227 0.010877221 -0.043667294 -0.012618862 0.0521218 0.012033215 0.013854579 0.0042973226
0.063701004 0.06414808 0.10535416 0.0071925116 0.0005736191 0.20836177 -0.037954807 0.049210336
0.07428119 0.06856765 0.008203684 0.18122697 0.16180548 -0.0030281236 0.004900753 0.007760159
0.0103355795 -0.006115458 0.27373144 0.06368309 0.039234594 -0.016512405 0.015790472 -0.061136745
0.009283897 0.01499923 0.036209334 -0.016322507 -0.06684265 0.0012741155 0.12200242 -0.010875325
0.0058838683 0.015969612 0.013033117 0.004592921 0.091738395 0.014982002 0.053411994 0.16690141
-0.01569945 -0.03491567 0.0032629033 0.044024725 0.013390508 0.020850467 -0.049151063 0.0027508722
0.0685153 0.048609488 0.0049342336 0.020587364 0.014796616 0.040955525 0.04252902 0.0645019
-0.046467986 0.016723309 0.017390188 0.0049615144 -0.07486605 -0.0150323585 0.017123654 0.0033344214
-0.014802926 0.01866205 -0.11321639 0.008800845 0.028277181 0.027608743 -0.032328807 0.11261324
-0.0030826118 0.048487563 0.0010950145 -0.016371813 0.06975575 -0.008128935 0.06579131 0.0028209167
0.010492757 0.0055330633 -0.005423597 0.057732206 0.05016357 0.060395233 0.07057656 -0.102945074
-0.074381046 0.01738647 -0.007796811 0.030743467 -0.019014588 0.11971913 -0.049288236 0.007905027
0.009110957 0.01633126 -0.07439561 0.075757876 -0.05519097 0.019732133 0.002370367 -0.0051629413
-0.011136168 0.0033958578 0.01188478 0.096782275 -0.05153356 -0.028394088 0.02066996 -0.0129930815
0.04203126 -0.04662153 0.074777044 0.005495888 -0.012028995 -0.081221774 -0.019734584 0.12924601
-0.07821805 0.03004957 -0.11367361 -0.106299184 -0.011548596 0.0037796423 0.016810782 -0.006820108
-0.041207653 0.048725154 -0.07935823 0.05431987 -0.025956629 0.012745523 0.06416724 -0.21690382
-0.07199664 -0.103301056 -0.08478864 -0.074789956 -0.017819766 -0.035198987 0.07707158 -0.024578057
0.042456575 -0.038750265 0.082462214 -0.061693512 0.054359194 -0.09292032 -0.014551329 -0.034237918
0.039494596 0.036378384 0.04408927 -0.027204238 -0.07958146 0.025104782 -0.06884507 -0.012925106
0.048565045 -0.1818587 0.029985366 -0.12165507 -0.07207156 -0.01168102 0.007314283 0.13941748
0.034208626 0.007915825 0.044094134 -0.057632737 0.15178128 0.020702781 -0.103050455 -0.05038528
0.024838973 0.047235843 0.06945166 0.011638282 -0.044265293 0.01703789 0.017181424 0.034960803
0.08583351 0.1575633 -0.08286122 -0.0075146016 0.016359482 -0.032610554 0.026252849 0.020042123
-0.07321231 0.18112668 0.009064923 0.1384237 -0.036366753 0.016291488 0.2336156 0.044646204
0.0015197679 0.055350624 0.078545354 0.040945236 0.02348382 -0.14990008 -0.021075115 0.044998553
-0.02599981 -0.053149447 0.016351333 -0.07085069 -0.00782393 0.06892333 0.009822492 0.018687263
0.041828815 0.04152168 0.0061891177 -0.024896469 0.06977489 0.13234274 -0.04600137 0.0035496638
00000000: 4b0b a63b 76ff 473d 7118 2238 ad32 67bb
00000010: ab7d 23bd 31fd bfbd 345d 2d3e 7e41 ea3c
00000020: f2c3 923b 5134 27bc b08c 6d3c e13e b6bd
00000030: 97e9 4e3c 8611 b63e 0dc8 cbbd f5c2 55bc
00000040: 9d89 943b a237 973d 75f0 a23d 5826 c33d
00000050: 0d59 c83b a683 743d 9dc5 c23d 3866 66bd
00000060: 43d0 353e 5f36 323c 7adc 32bd 58bf 4ebc
00000070: ab7d 553d f626 453c 51fe 623c 8ed0 8c3b
00000080: ac75 823d 1260 833d ecc3 d73d 29af eb3b
00000090: ed5e 163a ca5c 553e 8076 1bbd c790 493d
000000a0: bd20 983d 326d 8c3d bf68 063c 9093 393e
000000b0: 56b0 253e 7c73 46bb 7f96 a03b ef48 fe3b
000000c0: 9056 293c 2e64 c8bb 8726 8c3e 486c 823d
000000d0: 74b4 203d 0645 87bc 055b 813c 866a 7abd
000000e0: 7c1b 183c 55bf 753c 3d50 143d c7b6 85bc
000000f0: cde4 88bd 3900 a73a 68dc f93d 6b2e 32bc
00000100: 77cd c03b b4d2 823c db88 553c 3780 963b
00000110: 57e1 bb3d 1277 753c 89c6 5a3d 34e8 2a3e
00000120: 229c 80bc bc03 0fbd 6fd6 553b 4553 343d
00000130: dc63 5b3c 99ce aa3c a052 49bd fa47 343b
00000140: c051 8c3d be1a 473d 5aaf a13b d5a6 a83c
00000150: 816d 723c fbc0 273d e932 2e3d 9219 843d
00000160: 3755 3ebd 52ff 883c de75 8e3c 3394 a23b
00000170: 5f53 99bd 484a 76bc e846 8c3c 4f86 5a3b
00000180: f987 72bc 28e1 983c ffdd e7bd 6b31 103c
00000190: 8ca5 e73c bb2b e23c 366b 04bd c5a1 e63d
000001a0: a505 4abb e59a 463d 9786 8f3a 2e1e 86bc
000001b0: 1adc 8e3d 392f 05bc 98bd 863d 21df 383b
000001c0: d0e9 2b3c b34e b53b 6eb8 b1bb 9b78 6c3d
000001d0: 5178 4d3d fe60 773d 728a 903d ded4 d2bd
000001e0: 1755 98bd 126e 8e3c 647c ffbb b9d9 fb3c
000001f0: 7bc4 9bbc 4e2f f53d 76e2 49bd 1684 013c
00000200: 2046 153c 22c9 853c ba5c 98bd f226 9b3d
00000210: ed0f 62bd 48a5 a13c 2958 1b3b e42d a9bb
00000220: 7974 36bc 0a8d 5e3b 61b8 423c c935 c63d
00000230: db14 53bd b89a e8bc 0c54 a93c efe0 54bc
00000240: f828 2c3d 38f6 3ebd b524 993d da16 b43b
00000250: 4315 45bc 9a57 a6bd 6caa a1bc 1159 043e
00000260: c930 a0bd 842a f63c b6cd e8bd 63b3 d9bd
00000270: 5336 3dbc e0b3 773b c4b6 893c 367b dfbb
00000280: 5bc9 28bd 0794 473d 9186 a2bd 837e 5e3d
00000290: ffa2 d4bc 99d2 503c 1d6a 833d 091c 5ebe
000002a0: f972 93bd 818f d3bd aba5 adbd 7a2b 99bd
000002b0: c2fa 91bc d02c 10bd b4d7 9d3d ec57 c9bc
000002c0: f2e6 2d3d 99b8 1ebd f3e1 a83d 56b2 7cbd
000002d0: bfa7 5e3d 024d bebd b368 6ebc 0f3d 0cbd
000002e0: 16c5 213d 8001 153d f396 343d 6cdb debc
000002f0: 9bfb a2bd 8ba8 cd3c a5fe 8cbd d3c3 53bc
00000300: 24ec 463d 2b39 3abe dfa3 f53c 4b26 f9bd
00000310: 419a 93bd c061 3fbc a7ac ef3b 75c3 0e3e
00000320: 581e 0c3d 60b1 013c 0d9c 343d 4e10 6cbd
00000330: 8d6c 1b3e e198 a93c 1e0c d3bd cc60 4ebd
00000340: 1a7b cb3c 5f7a 413d ac3c 8e3d 7eae 3e3c
00000350: 864f 35bd 0c93 8b3c 0fc0 8c3c 0f33 0f3d
00000360: 7bc9 af3d 4658 213e 25b3 a9bd 0c3d f6bb
00000370: 5204 863c a592 05bd 3710 d73c 612f a43c
00000380: 56f0 95bd 4679 393e 0b85 143c f1be 0d3e
00000390: 4ef5 14bd ba75 853c ee38 6f3e f0de 363d
000003a0: f332 c73a 56b7 623d 63dc a03d 31b6 273d
000003b0: 2461 c03c 687f 19be b8a5 acbc 6750 383d
000003c0: 8efd d4bc 3cb3 59bd 3bf3 853c 2b1a 91bd
000003d0: f12f 00bc ad27 8d3d 84ee 203c 0816 993c
000003e0: b154 2b3d a312 2a3d 15ce ca3b aef3 cbbc
000003f0: 23e6 8e3d db84 073e ef6b 3cbd 7aa1 683b

lstm.bias_hh_l0 f4 [256]
0.005067264 0.01896091 3.8646573e-05 0.10648838 -0.047716297 -0.12190436 0.10904778 0.030931108
0.004478925 -0.0073996633 0.014436009 -0.038409486 0.012628934 0.23558189 -0.032395493 -0.033923633
0.09765174 -0.09896532 0.06409789 0.17493287 0.0061141313 0.038025282 0.0043671615 -0.15434977
0.11214846 0.010877221 -0.05336119 -0.0141829075 -0.029858744 0.012034865 0.013854579 0.0042973226
-0.01056863 0.11574858 0.14980939 0.0071925116 -0.10560283 0.22178513 -0.07839089 0.04901989
-0.06573956 0.12546563 0.00820297 0.19765408 0.14760707 -0.13684806 0.004900753 0.007760159
0.0103355795 -0.0061154617 0.27214578 -0.029390225 0.03164626 -0.010217198 -0.11734923 0.070580155
0.009283897 0.01499923 0.11219559 -0.016321601 -0.13585418 -0.034886442 0.023889083 0.10354589
0.0058838683 0.01596961 -0.07991796 0.00459292 0.10571226 -0.03687723 0.08455461 0.050889377
-0.00922206 0.025854181 0.0032629033 -0.0666641 0.013390508 0.020850467 -0.07999242 0.0027508722
-0.026296342 0.06868591 0.0049342336 0.074749306 0.014796632 0.041391484 0.042605035 0.097439274
-0.038374674 0.016723309 0.01599826 0.004964783 -0.02293665 -0.027416233 0.017123634 0.0033344214
-0.021476893 0.02798471 -0.057437465 0.010726117 0.028276978 0.024075424 -0.032328665 0.046387196
0.01001525 -0.033319682 -0.05953416 -0.02229286 0.031626016 -0.009922237 0.055034302 0.0028209167
0.010492757 0.0019709077 -0.0053933235 0.0019952261 0.055098247 0.013829043 -0.0047687744 0.017264307
-0.08375818 0.01738647 -0.007796811 -0.011856693 -0.021024097 0.10988678 -0.037626863 0.007905027
0.009110957 0.0075258384 -0.04840533 -0.037015222 0.02107131 0.019732133 0.0023616045 -0.005165017
-0.024852958 0.0033958578 0.006861335 0.012507154 -0.051533613 -0.029794095 0.020653382 -0.012991261
-0.005276706 -0.041260157 0.07475768 0.0058147456 -0.012028995 -0.09879903 -0.0067354254 0.07548001
0.052722663 0.034456898 -0.09978977 -0.024006406 -1.995663e-05 0.003780035 0.016810782 -0.0068201134
-0.00449757 0.11069745 -0.07939629 0.06880514 -0.025956633 0.012746775 0.011357307 -0.027147243
0.027646327 -0.18003272 -0.07350638 -0.029973622 -0.017819766 0.0937038 0.10364834 -0.026134565
0.04165028 0.007488477 0.034737885 -0.0076944954 -0.007017201 -0.07160005 -0.01453785 -0.034237918
0.019782562 0.035918284 0.08510061 0.0009483013 -0.11806242 0.022891372 -0.010339418 -0.012925106
0.044320844 -0.1310566 0.10920811 0.029810488 -0.06922514 -0.08998517 0.007314283 0.12016739
0.09249283 0.007915787 0.014895391 -0.08038185 0.13459781 0.020702781 0.06589331 0.048122767
0.034063917 0.047236707 0.1398407 0.011638282 -0.03619049 0.01703789 0.017181424 0.0349656
0.15723686 0.1735066 -0.07981853 -0.0075146016 0.016359482 -0.14083502 0.047330305 0.019202655
-0.08913036 0.048224647 0.009383569 0.026080541 0.032571524 0.016291488 0.18207557 0.16021964
0.001519693 0.055522192 0.14989503 0.040734544 0.023483818 -0.08767826 -0.11678647 0.007826835
0.010764946 -0.07155407 0.016351333 -0.064730495 0.07270828 0.14160119 0.012802199 0.018687263
0.045918632 0.074913666 0.0061891177 -0.024883624 -0.04787667 0.2146963 -0.104897484 0.0032291908
00000000: 4b0b a63b e953 9b3c 7118 2238 9416 da3d
00000010: 2a72 43bd fea8 f9bd 7154 df3d 3c63 fd3c
00000020: f2c3 923b e078 f2bb 0385 6c3c 4453 1dbd
00000030: 97e9 4e3c 613c 713e 23b1 04bd 82f3 0abd
00000040: a3fd c73d 54ae cabd c145 833d 9a21 333e
00000050: 0d59 c83b 66c0 1b3d 681a 8f3b de0d 1ebe
00000060: 17ae e53d 5f36 323c 4391 5abd 6d5f 68bc
00000070: 539a f4bc e22d 453c 51fe 623c 8ed0 8c3b
00000080: 0c28 2dbc 970d ed3d a267 193e 29af eb3b
00000090: 4c46 d8bd a41b 633e 678b a0bd 15c9 483d
000000a0: 76a2 86bd 107a 003e c065 063c d565 4a3e
000000b0: 4f26 173e e621 0cbe 7f96 a03b ef48 fe3b
000000c0: 9056 293c 3664 c8bb b156 8b3e c5c3 f0bc
000000d0: 829f 013d 0966 27bc cb54 f0bd 548c 903d
000000e0: 7c1b 183c 55bf 753c cdc6 e53d e1b4 85bc
000000f0: 5c1d 0bbe 16e5 0ebd 0ab3 c33c de0f d43d
00000100: 77cd c03b b3d2 823c 07ac a3bd 3580 963b
00000110: ab7f d83d 940c 17bd f82a ad3d 6171 503d
00000120: 2018 17bc 26cc d33c 6fd6 553b 3087 88bd
00000130: dc63 5b3c 99ce aa3c 11d3 a3bd fa47 343b
00000140: 6d6b d7bc 33ab 8c3d 5aaf a13b 2a16 993d
00000150: 936d 723c 1e8a 293d 9e82 2e3d 3e8e c73d
00000160: c32e 1dbd 52ff 883c c80e 833c 9eaf a23b
00000170: a4e5 bbbc 0298 e0bc dd46 8c3c 4f86 5a3b
00000180: 4ff0 afbc 3140 e53c 8c43 6bbd 98bc 2f3c
00000190: 1fa5 e73c d339 c53c 106b 04bd 8000 3e3d
000001a0: 0117 243c 387a 08bd 17da 73bd 849f b6bc
000001b0: 488a 013d e190 22bc a66b 613d 21df 383b
000001c0: d0e9 2b3c 582a 013b 7aba b0bb 57c2 023b
000001d0: b3ae 613d 3693 623c 6143 9cbb e06d 8d3c
000001e0: 6989 abbd 126e 8e3c 647c ffbb 9342 42bc
000001f0: ba3a acbc 520c e13d a01e 1abd 1684 013c
00000200: 2046 153c 4f9b f63b ab44 46bd 469d 17bd
00000210: bd9d ac3c 48a5 a13c 26c5 1a3b 4e3f a9bb
00000220: 6e98 cbbc 0a8d 5e3b 0dd5 e03b ceea 4c3c
00000230: e914 53bd bf12 f4bc 4831 a93c 4cd9 54bc
00000240: 38e8 acbb 6900 29bd 8e1a 993d 9f89 be3b
00000250: 4315 45bc 2557 cabd d8b4 dcbb 4395 9a3d
00000260: b8f3 573d ad22 0d3d 945e ccbd 15a9 c4bc
00000270: 8968 a7b7 77ba 773b c4b6 893c 427b dfbb
00000280: 5a60 93bb 58b5 e23d 869a a2bd b6e9 8c3d
00000290: 01a3 d4bc d9d7 503c 0014 3a3c e563 debc
000002a0: 8d7a e23c 7f5a 38be 838a 96bd 3e8b f5bc
000002b0: c2fa 91bc c7e7 bf3d 9545 d43d 2818 d6bc
000002c0: 7c99 2a3d e661 f53b 5049 0e3d 1b22 fcbb
000002d0: 8cf0 e5bb 0ca3 92bd 2a30 6ebc 0f3d 0cbd
000002e0: 0a0f a23c 0d1f 133d 3b49 ae3d 6c97 783a
000002f0: b6ca f1bd b086 bb3c aa66 29bc d3c3 53bc
00000300: c689 353d b433 06be 80a8 df3d 2035 f43c
00000310: e9c5 8dbd 254a b8bd a7ac ef3b 521a f63d
00000320: e16c bd3d 38b1 013c cc0b 743c 3d9f a4bd
00000330: 02d4 093e e198 a93c 12f3 863d 611c 453d
00000340: 9b86 0b3d 477b 413d 6732 0f3e 7eae 3e3c
00000350: 7b3c 14bd 0c93 8b3c 0fc0 8c3c 1738 0f3d
00000360: b302 213e b7ab 313e e677 a3bd 0c3d f6bb
00000370: 5204 863c 0e37 10be 6cdd 413d e34e 9d3c
00000380: fa89 b6bd 3587 453d 8abd 193c dca6 d53c
00000390: b869 053d ba75 853c 0572 3a3e 9e10 243e
000003a0: 6f30 c73a 3d6b 633d 157e 193e 44d9 263d
000003b0: 2361 c03c a990 b3bd bf2d efbd 203c 003c
000003c0: 755f 303c f18a 92bd 3bf3 853c 6c91 84bd
000003d0: 14e8 943d e7ff 103e 51c0 513c 0816 993c
000003e0: 2d15 3c3d 566c 993d 15ce ca3b bed8 cbbc
000003f0: 541a 44bd 59d9 5b3e 7ed4 d6bd d5a0 533b

lstm.weight_ih_l0_reverse f4 [256, 6]
0.053577784 0.123586625 -0.02328554 -0.010409118 -0.013952689 -0.056367785 0.2120321 0.08024586
0.019668624 -0.08889231 0.11812378 0.12506242 0.0153960185 0.028334757 0.0027813849 0.0023692325
0.00032285342 6.1952946e-05 0.060791887 0.005966693 -0.013449879 -0.0010115231 -0.026747137 -0.08877214
-0.08798441 0.07229696 -0.01650592 0.010604503 -0.015698314 -0.04047539 0.013618912 0.02193689
0.006531156 0.006165166 0.0053280755 0.0043593813 0.094223425 -0.019617593 0.09877169 -0.1399517
-0.054730248 0.05676337 0.15207474 -0.018234473 0.005959025 -0.039476216 0.09363731 0.12987328
0.12869902 -0.019370295 -0.09298162 0.1170157 0.044750784 -0.0168589 0.03268486 0.068420686
0.0009803193 0.0017312259 0.00038132243 0.0001490921 0.030988311 0.0009741919 -0.06554622 -0.057649687
-0.0179768 -0.019447599 -0.09930424 -0.09142054 0.069347836 0.024324842 0.0038282673 0.0010536781
0.11268376 -0.062342405 -0.014726452 0.01625518 -0.011068331 -0.16344418 0.030433113 -0.0661453
0.015766613 0.008205784 0.08337574 0.08692744 -0.07352856 -0.064897105 0.012621533 0.034975026
0.031717174 0.030000657 -0.10394298 0.12317118 0.009297009 -0.016499411 -0.0029080512 -0.016286436
0.064999446 -0.02669696 0.021404158 0.008715058 -0.045399047 -0.061632134 0.16625601 0.036128502
0.012075244 -0.12013505 0.0022598903 -0.007870552 0.007208182 0.008334716 -0.0005510349 7.8144054e-05
0.00084518996 -3.0656767e-05 0.01038814 0.0119882 0.007821395 0.008951513 0.0061147623 0.0054083955
0.04094709 0.07887695 0.032185543 -0.0625327 0.0512068 -0.056371376 0.052233797 0.011293731
0.0048906533 -0.09544262 0.054953985 0.14038177 0.024657933 0.052089904 -2.9878393e-06 -2.3245402e-06
-2.1540495e-06 -9.1253554e-07 -0.05739635 -0.022154666 0.056603987 0.008489226 0.074110895 -0.06004854
0.07161387 -0.12475072 0.0214351 0.12523106 0.028947094 0.03157703 0.012104831 0.017253041
0.008465748 0.0064411256 0.0056726155 0.0036116594 -0.0040154634 0.105382085 -0.0040773493 -0.011613453
-0.119981796 0.0014092557 -0.06875281 0.041867975 0.16070408 -0.023554878 -0.084164016 0.017303847
0.014261564 0.11646284 0.044778835 -0.027845707 -0.1547467 0.08712547 -0.1319532 0.11202352
-0.09957496 0.090023026 0.12093669 -0.14258513 0.07271955 -0.09868192 0.031206764 0.016315833
-0.085517585 0.001003401 0.121587135 -0.07913977 0.006983945 0.0042689648 0.040216062 -0.19647564
-0.016447185 -0.010935884 0.06187273 0.049455915 0.019496297 0.01794802 -0.0029834225 -0.015210371
0.114419065 -0.04160867 0.030060178 0.0029023741 -0.08548185 0.017855184 -0.002431349 -0.002219636
0.007698981 0.28991926 0.14755248 0.044198666 -0.053131547 -0.03130388 -0.09229005 0.033110395
0.13543615 0.050975252 -0.0073553477 -0.0035999545 -0.05924882 -0.1971567 0.046114877 -0.0127360625
-0.049668606 -0.0402224 -0.019915119 -0.008201689 0.013342736 0.01534727 0.01566012 0.013510514
0.008991443 0.0032675653 0.024714643 0.050836336 0.002299593 0.0028758738 0.0009013348 -0.00104215
0.019460648 -0.008172762 0.08647096 -0.071791254 -0.076705754 0.20646724 0.019755604 0.035891615
0.009896626 0.008193083 0.006556944 0.0032594686 0.032767884 0.070313424 2.0148e-14 1.916855e-14
00000000: 6174 5b3d fc1a fd3d 51c1 bebc 018b 2abc
00000010: d299 64bc e8e1 66bd f11e 593e f157 a43d
00000020: 1820 a13c 2c0d b6bd e1ea f13d 5d10 003e
00000030: 953f 7c3c 4b1e e83c e547 363b 2045 1b3b
00000040: a744 a939 bcec 8138 ea00 793d 4084 c33b
00000050: e25c 5cbc 1595 84ba d01c dbbc 2bce b5bd
00000060: 2c31 b4bd 6e10 943d 6c37 87bc 82be 2d3c
00000070: c099 80bc 86c9 25bd db21 5f3c feb4 b33c
00000080: 4f03 d63b 2905 ca3b 2397 ae3b 24d9 8e3b
00000090: 36f8 c03d 13b5 a0bc d048 ca3d 804f 0fbe
000000a0: d32c 60bd b580 683d 7bb9 1b3e 7660 95bc
000000b0: ed43 c33b d0b1 21bd ebc4 bf3d 80fd 043e
000000c0: adc9 033e 74ae 9ebc 266d bebd eda5 ef3d
000000d0: 994c 373d ad1b 8abc 8fe0 053d 2520 8c3d
000000e0: 0f7e 803a 4dea e23a 3bec c739 9b55 1c39
000000f0: 33db fd3c e960 7f3a 193d 86bd 1422 6cbd
00000100: 1544 93bc 9250 9fbc 0560 cbbd b13a bbbd
00000110: 3d06 8e3d e444 c73c abe3 7a3b 921b 8a3a
00000120: bec6 e63d c05a 7fbd 3747 71bc 9529 853c
00000130: f257 35bc e95d 27be dd4e f93c 3077 87bd
00000140: fc28 813c 8d71 063c e6c0 aa3d 0307 b23d
00000150: 2496 96bd c6e8 84bd 8cca 4e3c f941 0f3d
00000160: dee9 013d f0c3 f53c 0fe0 d4bd 2c41 fc3d
00000170: 7b52 183c c629 87bc 0195 3ebb 226b 85bc
00000180: 6e1e 853d 95b3 dabc c657 af3c 9ac9 0e3c
00000190: 5af4 39bd fa71 7cbd 043f 2a3e 7bfb 133d
000001a0: 3fd7 453c 5d09 f6bd ab1a 143b 7df3 00bc
000001b0: 9d32 ec3b 558e 083c 5373 10ba 45e1 a338
000001c0: bd8f 5d3a 7495 00b8 0433 2a3c 286a 443c
000001d0: 4f25 003c 5ea9 123c 585e c83b e938 b13b
000001e0: 23b8 273d 3d8a a13d fdd4 033d 2511 80bd
000001f0: 39be 513d ace5 66bd 1bf3 553d 5709 393c
00000200: c641 a03b 6c77 c3bd 6e17 613d 3dc0 0f3e
00000210: 6fff c93c 395c 553d b082 48b6 4cff 1bb6
00000220: 4a8e 10b6 f7f4 74b5 6f18 6bbd b47d b5bc
00000230: 95d9 673d 6516 0b3c 74c7 973d 75f5 75bd
00000240: 4baa 923d 4e7d ffbd aa98 af3c 923c 003e
00000250: 7522 ed3c ea56 013d 5753 463c 4056 8d3c
00000260: ecb3 0a3c 1410 d33b 59e1 b93b 97b1 6c3b
00000270: 2694 83bb 90d2 d73d 499b 85bb 5a46 3ebc
00000280: 04b9 f5bd c6b6 b83a 46ce 8cbd c17d 2b3d
00000290: 9c8f 243e 29f6 c0bc 2f5e acbd ccc0 8d3c
000002a0: 56a9 693c 1284 ee3d 036a 373d ae1c e4bc
000002b0: eb75 1ebe d76e b23d bd1e 07be 966c e53d
000002c0: f5ed cbbd fe5d b83d a8ad f73d d601 12be
000002d0: fded 943d bf19 cabd 54a5 ff3c c8a8 853c
000002e0: d823 afbd 8d84 833a ad02 f93d 0814 a2bd
000002f0: 94d9 e43b ace2 8b3b 99b9 243d e930 49be
00000300: 3fbc 86bc 6c2c 33bc 426e 7d3d 4992 4a3d
00000310: b3b6 9f3c ba07 933c 8685 43bb ec34 79bc
00000320: 8b54 ea3d da6d 2abd c340 f63c c235 3e3b
00000330: 1c11 afbd 0945 923c 4457 1fbb 5077 11bb
00000340: bc47 fc3b 4c70 943e ff17 173e a909 353d
00000350: 77a0 59bd 7f38 00bd 9102 bdbd c49e 073d
00000360: c6af 0a3e 6dcb 503d 2105 f1bb 37ed 6bbb
00000370: e4ae 72bd 72e3 49be f4e2 3c3d ebaa 50bc
00000380: 4f71 4bbd 3ec0 24bd 0825 a3bc 6160 06bc
00000390: 7e9b 5a3c 1e73 7b3c a749 803c 345b 5d3c
000003a0: d850 133c a624 563b 5d76 ca3c c339 503d
000003b0: c5b4 163b 2879 3c3b 8e47 6c3a c098 88ba
000003c0: f06b 9f3c 0ce7 05bc b017 b13d 4b07 93bd
000003d0: e817 9dbd 266c 533e 81d6 a13c 1603 133d
000003e0: 7525 223c 483c 063c a2db d63b cf9c 553b
000003f0: 9e37 063d 7c00 903d 207a b528 aba7 ac28

lstm.weight_hh_l0_reverse f4 [256, 64]
1.1374075e-37 -7.153308e-38 1.89909e-37 1.7407769e-37 -2.4518463e-38 -2.4399008e-37 -1.3333022e-37 -2.007466e-37
-2.3625206e-37 6.047708e-38 -2.194788e-37 7.379589e-38 -3.3113254e-37 -2.373544e-37 3.0989677e-37 3.0255662e-37
-3.0767844e-37 1.3123347e-37 5.2320426e-38 -2.9845406e-37 2.414535e-37 4.682547e-38 -2.4271823e-37 3.1422105e-37
-3.2638008e-37 1.9541807e-37 1.7004712e-38 -5.542481e-38 3.3279406e-37 -1.7210224e-37 -2.8828678e-38 -3.008239e-37
1.8208188e-37 3.000422e-37 1.9799334e-37 -1.8057244e-37 1.0170873e-37 4.0641389e-38 -9.90823e-38 8.974411e-38
-8.5322793e-38 1.075654e-37 3.054546e-37 3.392549e-37 3.1443714e-37 -6.958958e-38 -3.2488174e-38 3.1656857e-37
2.667348e-37 -1.3046736e-38 2.2493351e-37 3.495356e-37 1.0748791e-37 1.8049158e-37 -4.8486205e-38 1.0272681e-37
-3.4416496e-37 1.53168e-40 -3.008879e-39 -3.3585633e-37 -2.6671367e-37 3.2826789e-37 -1.8734982e-37 -5.599709e-39
5.2039326e-38 -1.7970487e-37 6.1584086e-38 2.7043816e-37 -1.8432251e-38 1.4129987e-37 2.5831803e-37 2.7254482e-37
1.987501e-39 -3.2943677e-37 -3.2204188e-37 2.7805e-41 -3.426077e-37 -2.7642054e-37 3.0412975e-37 3.429567e-37
-2.1220426e-38 -2.0921054e-37 3.3020473e-37 1.9574e-37 -4.5101366e-38 -3.348441e-37 3.2090096e-37 -1.1283834e-37
-1.4004684e-37 -2.2434598e-37 2.6357487e-37 8.9956276e-38 -1.6332036e-37 6.284458e-38 9.0427987e-38 1.7390473e-37
-9.2590505e-38 2.868018e-37 3.3158607e-37 -3.4111842e-37 -3.2833167e-37 1.67243e-37 1.7984207e-37 -1.7620138e-37
-3.3444024e-37 1.5728947e-37 7.3392514e-38 3.144875e-37 5.615827e-39 1.8065912e-37 -3.2206343e-37 3.1742522e-37
-2.1777158e-37 5.168642e-38 9.235525e-38 -1.3769835e-37 -6.6033264e-38 -1.7673259e-37 -4.173336e-39 2.4973275e-37
-2.14823e-37 3.1626042e-37 5.421998e-38 3.2972127e-37 -1.4603651e-37 -2.2535287e-37 2.139623e-37 2.0598709e-37
3.4239376e-37 1.8609392e-37 7.918156e-38 3.3846048e-37 -3.549726e-38 1.9620367e-37 1.7198105e-37 2.7015476e-37
2.5723939e-37 -1.5650237e-37 9.724193e-38 -3.4597398e-37 3.3629443e-37 -1.4313541e-37 2.1038275e-37 3.3022683e-37
-1.6017468e-37 -2.1448146e-37 3.238786e-37 -6.8611547e-38 -3.1613366e-38 8.3374013e-38 5.833742e-38 3.4126965e-38
3.477399e-37 -3.4021392e-37 -2.5316728e-37 -3.3991597e-37 8.47003e-38 -1.1227788e-37 1.4930053e-37 -8.459826e-38
1.386128e-37 7.4585064e-38 2.915165e-37 -1.362982e-37 2.4350872e-37 -3.2244613e-37 -6.365739e-38 -2.6481797e-37
-3.437367e-38 -2.6307338e-37 2.6035908e-37 -1.1715819e-37 -2.4939931e-37 -2.5789674e-37 7.280112e-38 2.0716265e-37
-1.2987991e-37 -3.4833854e-37 1.796245e-37 2.4899085e-37 1.0806908e-37 -4.4563393e-38 -2.3490935e-37 -3.3659528e-37
-7.5109306e-38 2.1466574e-37 3.3746794e-37 -1.8545137e-37 3.182596e-37 -2.245899e-37 2.941238e-37 2.9128112e-37
-4.321397e-38 -3.382189e-37 1.6108332e-37 -1.3196606e-37 2.915598e-37 2.8563081e-37 1.4041717e-37 3.0171714e-37
5.908046e-38 1.7238491e-37 -9.0702614e-38 -3.267781e-37 -2.701685e-37 -2.091183e-37 -1.0674356e-37 -4.646025e-39
3.4534342e-38 -3.1509667e-37 3.1298887e-37 -1.9710642e-37 -2.506787e-37 -3.2979595e-37 -2.3947354e-37 -1.7671514e-37
-9.653791e-38 -4.528274e-38 -3.186197e-37 2.642143e-37 -6.99645e-38 3.1899826e-37 -5.199355e-39 7.2397194e-38
-3.3008859e-37 -3.3709566e-37 -2.0622963e-37 3.4265395e-37 5.9565734e-38 -3.5593993e-38 -3.2239324e-37 -2.6044854e-37
-8.798956e-38 -2.533136e-37 -1.6211571e-38 1.7605358e-37 -3.1316747e-37 -1.7171307e-37 1.1990744e-37 1.9780525e-37
-1.8297134e-37 3.111978e-37 1.1172427e-37 2.073701e-37 1.0646902e-37 -3.2132375e-37 1.2580499e-37 -2.1227954e-37
-6.790723e-39 5.6378856e-38 -2.8489913e-37 1.6677307e-37 1.7239393e-37 2.4249726e-37 2.213512e-37 -2.4373598e-37
00000000: ded0 1a02 48bb c281 d03e 8102 39f1 6c02
00000010: c07d 0581 110d a682 cd7a 3582 fe9e 8882
00000020: eac8 a082 60a2 a401 9a5e 9582 3be4 c801
00000030: 6d5b e182 f888 a182 a2e7 d202 cce8 cd02
00000040: 2565 d182 31a0 3202 046e 8e01 081e cb82
00000050: 2253 a402 2ef1 7e01 7b2f a582 07d9 d502
00000060: 6e1f de82 a1fe 8402 382a b900 75e1 9681
00000070: e77c e202 e140 6a82 50f5 1c81 eaba cc82
00000080: 46d6 7702 b932 cc02 4ebf 8602 50c8 7582
00000090: 5270 0a02 d445 5d01 25dd 0682 844e f401
000000a0: 4f45 e881 1269 1202 b2e1 cf02 8ae2 e602
000000b0: adfe d502 dc70 bd81 e8e1 3081 0672 d702
000000c0: c287 b502 fe10 8e80 f214 9902 b1e1 ed02
000000d0: 124e 1202 23ac 7502 f4fd 8381 12d3 0b02
000000e0: fe39 ea82 f8aa 0100 88c3 2080 6d92 e482
000000f0: 1384 b582 5568 df02 e201 7f82 b6f9 3c80
00000100: 1eaa 8d01 029a 7482 d8a5 a701 f90c b802
00000110: 9eb5 c880 d253 4002 59cd af02 017c b902
00000120: 58a4 1500 fb33 e082 9c2b db82 824d 0000
00000130: ae2a e982 401f bc82 e0fa ce02 7c67 e902
00000140: ea11 e780 9e61 8e82 c7b9 e002 b836 8502
00000150: 218e 7581 12e2 e382 d564 da02 6c96 1982
00000160: 349f 3e82 95ae 9882 3861 b302 60e2 f401
00000170: d74c 5e82 4814 ab01 1c2b f601 f4b4 6c02
00000180: 2a0e fc81 ec2f c302 71aa e102 3627 e882
00000190: 7273 df82 aea3 6302 d1c9 7402 38d5 6f82
000001a0: b59b e382 6217 5602 1ecb c701 7307 d602
000001b0: a426 3d00 84e6 7502 5d2f db82 4607 d802
000001c0: 2935 9482 2db4 8c01 376a fb01 df6c 3b82
000001d0: 78c2 b381 528e 7082 9071 2d80 95f5 a902
000001e0: 7233 9282 563c d702 d099 9301 8c65 e002
000001f0: 4cc6 4682 025e 9982 7d9d 9102 0330 8c02
00000200: 6805 e902 444c 7d02 7e8d d701 2258 e602
00000210: f643 4181 8087 8502 a616 6a02 99db b702
00000220: 6c11 af02 1e05 5582 de5b 0402 2b75 eb82
00000230: c1de e402 69d3 4282 d82d 8f02 a1bd e002
00000240: bb04 5a82 f1f7 9182 9c6b dc02 45c7 ba81
00000250: 9a1e 2c81 35f7 e201 40cf 9e01 0cce 3901
00000260: d6a8 ec02 a089 e782 f64b ac82 b755 e782
00000270: 7e93 e601 22d3 1882 a437 4b02 624c e681
00000280: 83ab 3c02 340a cb01 5665 c602 fe84 3982
00000290: 34b9 a502 0a72 db82 ba4a ad81 cc39 b482
000002a0: e725 3b81 d909 b382 f330 b102 ac77 1f82
000002b0: 7dbb a982 f383 af82 fa2e c601 d3fc 8c02
000002c0: 8bc8 3082 2211 ed82 017e 7402 5374 a902
000002d0: 9418 1302 4ea0 7281 fbde 9f82 2b13 e582
000002e0: 8c77 cc81 0c18 9202 35ab e502 5f6c 7c82
000002f0: a498 d802 14d9 9882 982b c802 543c c602
00000300: 7c47 6b81 0b2e e682 5841 5b02 769f 3382
00000310: e26c c602 e863 c202 3e20 3f02 8a56 cd02
00000320: 12d5 a001 60a3 6a02 7fea f681 c664 de82
00000330: fedd b782 8c51 8e82 b44a 1182 3a97 3280
00000340: d905 3c01 9571 d682 5a02 d502 c824 8682
00000350: 649a aa82 8f72 e082 2dfa a282 3d88 7082
00000360: 8d66 0382 ee8a 7681 61d7 d882 a0d0 b302
00000370: 2476 be81 5619 d902 b09d 3880 7b15 c501
00000380: 8ba5 e082 596a e582 455a 8c82 bd32 e902
00000390: 4227 a201 c9ca 4181 d368 db82 8940 b182
000003a0: c687 ef81 7465 ac82 4487 b080 b8a1 6f02
000003b0: 7821 d582 46b9 6982 a535 2302 899e 8602
000003c0: 350c 7982 4eca d302 3a12 1802 f820 8d02
000003d0: 0aeb 1002 7eae da82 a43c 2b02 5078 9082
000003e0: c6f1 4980 547a 9901 6ee4 c182 efff 6202
000003f0: 84a6 6a02 fb08 a502 d1a4 9602 cce0 a582

lstm.bias_ih_l0_reverse f4 [256]
0.00027136298 -0.012616288 0.003166432 -0.068634026 0.06302107 0.00070472824 -0.0023257136 0.045341317
0.018274808 0.009138969 -0.0009173542 0.0004474012 0.0061977156 0.19759262 0.13408133 -0.1745537
0.095593035 0.10061854 6.4539413e-06 -0.0009325787 0.3284038 0.1061896 0.006900203 0.1252392
-0.025868628 0.0006531913 -0.15701957 -0.02427696 -0.0064349337 -0.08926701 0.10611359 0.12139073
0.0019115456 -0.0037663458 -0.034882598 -0.12179588 -0.102306165 -0.00011427985 0.0008918876 0.0066851317
-0.06245317 0.0041811964 0.009028372 -0.023834007 -0.04433621 -0.22578867 -0.08156604 0.11339767
0.08457442 -0.00019645834 -0.061120376 0.031821944 -0.029286908 -0.14799987 -0.0024294313 0.08715444
-0.040197186 -0.08691292 -0.020222025 -0.0022167768 0.038984165 0.00046191213 -0.03409353 -0.12638795
5.593456e-38 -2.0763308e-37 2.1016558e-37 -9.1645727e-38 2.22703e-37 2.167878e-37 -2.447704e-37 2.8223286e-37
2.7510637e-37 5.662176e-38 3.2732552e-37 3.3953634e-37 -3.4617558e-37 4.734105e-38 2.2705273e-37 3.2389967e-37
6.1019536e-38 -1.9213028e-37 -3.0412878e-37 -2.1876486e-37 -3.3954498e-37 2.6854277e-37 1.3273319e-37 -3.4763653e-38
5.7803534e-38 2.5719699e-37 1.129553e-37 -1.7822304e-37 -6.8766217e-38 3.404712e-37 2.3916329e-37 1.54276e-37
2.8700404e-37 2.6107865e-37 1.7881254e-37 -2.3731821e-37 -1.1447481e-37 -3.3620975e-37 -3.1985048e-37 3.246766e-37
-1.8771393e-37 2.7797645e-37 3.4432446e-37 -3.0198616e-37 1.5271272e-37 -1.9281405e-37 -2.8448942e-37 -1.4240501e-37
-3.038189e-37 -4.192607e-39 5.723525e-38 3.3844217e-37 2.4557738e-37 8.5117307e-38 -3.1580328e-37 -5.094316e-38
3.144259e-37 7.7012236e-38 -1.2707557e-37 -3.42279e-37 -3.1046734e-37 7.951363e-39 -3.4138346e-37 -3.3066545e-37
-0.0963449 0.0099083325 0.009538243 0.05527471 -0.009899432 0.0048710313 0.033069726 0.1240626
0.029696696 0.015012928 -0.0019796125 -0.0017288002 -0.0064660106 0.014311978 -0.020458376 0.003599479
-0.0052522738 0.1534851 -0.0005740543 0.05943044 -0.14325033 0.12032935 0.013220253 -0.05381781
0.050287846 -0.0018828348 0.0078077656 -0.14237666 -0.09713514 -0.02532252 0.018989109 0.009219359
0.005789069 0.0015606033 0.15999895 0.0025973243 0.05793927 -0.0023744493 -0.23281024 0.05848093
-0.009363006 -0.010575909 0.033561833 0.14238814 0.0050540166 0.068405606 0.0074707717 -0.00175689
0.020899253 0.10587729 -0.0057055447 0.0018709764 -0.12763855 -0.0070283622 0.068831615 -0.0071863234
0.0018510935 0.08509287 -0.010418724 0.0066418606 0.0009132143 0.0074192896 -0.006954196 -0.05962301
0.16090567 0.0040054764 0.070061214 -0.0020778456 0.15789156 0.12933157 0.0051940344 -0.23913144
-0.023818046 0.101641394 6.5445524e-06 -0.049310926 0.0015143731 0.017774798 0.08508285 -0.11481234
0.0011378672 0.06339864 -0.0009600341 -0.040822804 -0.0004721615 0.07157136 0.14745218 0.01350109
-0.07305954 0.0007262341 0.012290583 0.17354251 -0.05038656 -0.046848856 0.051323775 -8.8483075e-06
0.0709084 0.045144957 0.026120441 -0.021431267 0.070718385 -0.00015755609 0.1616459 -0.017157573
-0.09156965 0.17430522 0.0057805665 -0.023385206 0.0878445 0.027839288 0.14195192 -0.0024843938
0.083022244 0.055282667 -0.053169478 0.0006145504 -0.0023186416 -0.016876401 0.27900124 0.0015607713
0.124485515 0.00063858164 -0.2956681 0.0012683795 -2.7677166e-05 0.022035265 0.09277075 -0.15694258
00000000: b945 8e39 8cb4 4ebc ea83 4f3b ff8f 8cbd
00000010: 3111 813d 83bd 383a 006b 18bb d1b7 393d
00000020: 0db5 953c 9dbb 153c 997a 70ba 2c91 ea39
00000030: 3516 cb3b b855 4a3e 9e4c 093e 35be 32be
00000040: 48c6 c33d 1811 ce3d ef8e d836 4c78 74ba
00000050: 8b24 a83e ef79 d93d 191b e23b b43e 003e
00000060: 72ea d3bc ed3a 2b3a bdc9 20be 7ae0 c6bc
00000070: 23dc d2bb 9fd1 b6bd 1552 d93d b49b f83d
00000080: d48c fa3a ccd4 76bb 0ee1 0ebd 1e70 f9bd
00000090: e585 d1bd 87a9 efb8 90cd 693a f30e db3b
000000a0: e5ce 7fbd 6b02 893b bdeb 133c 893f c3bc
000000b0: e399 35bd 2535 67be 190c a7bd 0a3d e83d
000000c0: 5a35 ad3d 6200 4eb9 5c59 7abd ba57 023d
000000d0: 19eb efbc 478d 17be 1837 1fbb 077e b23d
000000e0: cea5 24bd 67ff b1bd a9a8 a5bc 5847 11bb
000000f0: dcad 1f3d cc2c f239 a8a5 0bbd d86b 01be
00000100: b344 9801 c94e 8d82 0208 8f02 c07b f981
00000110: 5690 9702 c389 9302 0595 a682 e613 c002
00000120: 4a3a bb02 9c23 9a01 26c4 de02 9313 e702
00000130: 4b98 eb82 e6df 8001 2a86 9a02 486f dc02
00000140: 691c a601 d1c1 8282 b5fa ce82 37e2 9482
00000150: 1415 e782 c0c2 b602 c4aa 3402 7645 3d81
00000160: 2f5b 9d01 090a af02 2dbf 1902 aa95 7282
00000170: 0f33 bb81 73b6 e702 1fc4 a202 57fd 5102
00000180: 2853 c302 51ae b102 1463 7302 aa82 a182
00000190: a6d0 1b82 00d0 e482 d0ad d982 a4f6 dc02
000001a0: c280 7f82 542e bd02 c855 ea02 6985 cd82
000001b0: 9edc 4f02 f238 8382 0c9d c182 e7d4 4182
000001c0: b8c4 ce82 48a7 2d80 26cf 9b01 f154 e602
000001d0: 9d21 a702 1bb6 e701 b1ec d682 33ae 8a81
000001e0: b8fc d502 b2a5 d101 60f7 2c82 6af1 e882
000001f0: 0a4b d382 2a95 5600 6355 e882 0c0a e182
00000200: 7a50 c5bd 8f56 223c 4a46 1c3c bc67 623d
00000210: 3a31 22bc 2c9d 9f3b 1f74 073d 8814 fe3d
00000220: 7c46 f33c c9f8 753c 63bc 01bb e998 e2ba
00000230: d4e0 d3bb c97c 6a3c 5398 a7bc 3de5 6b3b
00000240: 441b acbb 332b 1d3e 227c 16ba 556d 733d
00000250: 37b0 12be 3c6f f63d c399 583c 1070 5cbd
00000260: a1fa 4d3d 74c9 f6ba 49d8 ff3b 30cb 11be
00000270: caee c6bd 2c71 cfbc 0c8f 9b3c cb0c 173c
00000280: 3bb2 bd3b 288d cc3a c4d6 233e df37 2a3b
00000290: ba51 6d3d a69c 1bbb cf65 6ebe b389 6f3d
000002a0: 4b67 19bc 9446 2dbc 2278 093d 32ce 113e
000002b0: 2a9c a53b 3d18 8c3d 60cd f43b 7247 e6ba
000002c0: e934 ab3c 31d6 d83d 94f5 babb 8d3b f53a
000002d0: aeb3 02be 2d4e e6bb 97f7 8c3d 407b ebbb
000002e0: 64a0 f23a 2c45 ae3d 4cb3 2abc f7a3 d93b
000002f0: c664 6f3a 831d f33b 06e0 e3bb 4237 74bd
00000300: 75c4 243e 5f40 833b 417c 8f3d 772c 08bb
00000310: 53ae 213e 7f6f 043e b832 aa3b dfde 74be
00000320: 101e c3bc 5d29 d03d 4799 db36 41fa 49bd
00000330: ee7d c63a 749c 913c eb3f ae3d bb22 ebbd
00000340: 7d24 953a 25d7 813d ccaa 7bba d035 27bd
00000350: 728c f7b9 0194 923d b4fd 163e ad33 5d3c
00000360: 3da0 95bd bf60 3e3a 715e 493c 21b5 313e
00000370: 2362 4ebd 96e4 3fbd e138 523d 3173 14b7
00000380: 6c38 913d ebe9 383d 89fa d53c a090 afbc
00000390: cdd4 903d a435 25b9 8186 253e 0a8e 8cbc
000003a0: de88 bbbd 117d 323e e86a bd3b 5592 bfbc
000003b0: d1e7 b33d 380f e43c d85b 113e 36d1 22bb
000003c0: 9107 aa3d 1470 623d 3dc8 59bd c719 213a
000003d0: 5af4 17bb 6140 8abc 40d9 8e3e cb92 cc3a
000003e0: 43f2 fe3d 7d66 273a cf61 97be c13f a63a
000003f0: 432c e8b7 4d83 b43c 97fe bd3d 8eb5 20be
